Google-deploy/best_model_nn.pt (torch, 78835 bytes, 19 tensors)

network.0.weight f4 [128, 50]
-0.10131937 -0.1986077 -0.14074184 -0.09329236 0.056684703 0.15377943 0.041773632 0.24457683
0.012381917 -0.012991108 0.09615591 0.02032285 0.10109555 0.09725537 -0.045519523 0.03387458
-0.042158514 0.06995657 -0.02655083 0.07061404 -0.005209921 0.1165201 0.086811624 -0.11078944
-0.08861733 -0.06814908 0.10066468 -0.04688959 -0.050870713 -0.01659514 0.11175708 0.1938105
-0.12345807 0.048861865 -0.058386203 0.16086239 0.046964984 0.022504851 0.07031182 -0.11643643
0.10119856 0.04564498 -0.15420868 0.051156502 0.09356145 0.06207404 -0.06521774 -0.09378462
0.012913681 -0.036121972 -0.04239664 -0.0155174 -0.067445874 -0.032317746 0.051703386 -0.04123905
-0.06383092 -0.19242269 -0.10719148 -0.07891321 0.047748268 -0.19972387 0.1694454 -0.14580306
0.11425177 0.01713229 0.102387354 -0.05977075 -0.08808232 0.1159693 -0.008832357 -0.042765904
-0.046832826 -0.027678153 0.09810813 -0.075967394 -0.1109857 0.13620819 0.16799726 0.017776342
-0.06653134 -0.056190114 0.014747326 -0.14216372 -0.08803261 -0.12534682 -0.00080040557 0.06931851
-0.0006797958 -0.028257228 0.011264436 0.10249047 -0.05749986 -0.08618151 0.109998226 -0.014896396
0.08573418 -0.10885364 0.0733112 -0.0028555538 0.11608187 -0.072608635 -0.030139828 -0.053147282
-0.10023463 -0.074130334 0.09412236 -0.06701349 -0.0057932306 -0.10967887 0.06780743 0.0123293325
-0.15100662 -0.11043429 -0.12903592 -0.12660742 -0.16318974 -0.08751551 -0.07036081 -0.02065758
-0.024792098 0.1834077 0.03857333 -0.09977417 0.105111055 0.23938549 -0.017812029 0.030734085
0.019889517 -0.08011157 0.13770027 0.051658068 0.10463751 -0.055696227 -0.0058347825 0.18580027
-0.13038509 0.10071281 0.11213103 -0.0042817793 0.07388124 -0.058504473 0.116593525 -0.0039632684
0.030291341 0.09232041 0.008545695 0.08726339 0.018234145 0.06710969 -0.11597635 -0.025732152
0.17821409 -0.0553687 0.064945735 0.0070025036 0.10355362 0.01264171 -0.07837564 -0.15073894
-0.048057646 -0.10423365 -0.0075722714 0.16805232 0.14222634 -0.09418723 -0.06633905 -0.035907112
-0.18062499 -0.18126443 -0.1125549 -0.097893886 0.041443333 -0.085462324 -0.10792805 0.047086794
-0.05237801 0.081306994 -0.102792494 0.031445667 -0.0016343514 -0.055382535 -0.028617028 0.021782055
-0.027083432 0.0128026055 0.048936572 -0.056308687 0.0035527742 -0.10610392 -0.040278275 -0.10504988
-0.091130905 -0.066341035 0.056593534 0.07248996 0.053469133 -0.1354939 0.055601943 0.09044352
0.02722425 0.05567685 -0.035383042 -0.034569316 -0.120692 0.030796241 -0.1975616 -0.0065605477
0.014027026 -0.0049898378 -0.065506086 -0.12782611 -0.070702896 -0.15137044 -0.16985908 -0.111131474
-0.11024157 -0.010039905 -0.09063854 -0.117010035 0.07130881 -0.031943753 -0.15016112 -0.0860372
0.14587179 -0.11270384 -0.015830787 -0.043309897 -0.062013786 0.004439413 0.032889944 0.0031036912
0.0005271542 -0.093227684 -0.04612216 -0.04549957 0.014495733 -0.004622182 0.14993808 0.09086491
0.099759355 -0.13384895 -0.12950309 -0.09603458 -0.08792969 0.056598287 0.09253107 0.021995503
-0.006572953 -0.11543598 -0.03617593 -0.01659697 0.121068396 -0.039896764 -0.104033075 -0.14194553
00000000: 8880 cfbd d15f 4bbe a11e 10be 1110 bfbd
00000010: 382e 683d 5b78 1d3e d41a 2b3d 5972 7a3e
00000020: 86dd 4a3c a8d8 54bc 64ed c43d 1b7c a63c
00000030: 2f0b cf3d d32d c73d ae72 3abd 12c0 0a3d
00000040: 68ae 2cbd 6445 8f3d 2081 d9bc 189e 903d
00000050: fcb7 aabb 17a2 ee3d 4bca b13d 93e5 e2bd
00000060: 017d b5bd bf91 8bbd 4929 ce3d 4c0f 40bd
00000070: cf5d 50bd 88f2 87bc e5e0 e43d 4276 463e
00000080: 96d7 fcbd 6123 483d 5f26 6fbd 1cb9 243e
00000090: 5b5e 403d 185c b83c a5ff 8f3d 3976 eebd
000000a0: 3141 cf3d 3bf6 3a3d e1e8 1dbe 7b89 513d
000000b0: 259d bf3d 5941 7e3d e190 85bd 2712 c0bd
000000c0: e793 533c a2f4 13bd 19a8 2dbd b13c 7ebc
000000d0: 1021 8abd 9d5f 04bd eec6 533d 47ea 28bd
000000e0: c9b9 82bd 740a 45be 3587 dbbd 409d a1bd
000000f0: b093 433d 6a84 4cbe 1883 2d3e 664d 15be
00000100: d5fc e93d 0459 8c3c 76b0 d13d 2dd2 74bd
00000110: 8164 b4bd 5081 ed3d 97b5 10bc 4d2b 2fbd
00000120: c7d3 3fbd 4bbd e2bc eaec c83d cb94 9bbd
00000130: 784c e3bd 297a 0b3e 7907 2c3e b19f 913c
00000140: 9541 88bd 9b27 66bd c59e 713c 5e93 11be
00000150: 714a b4bd eb5a 00be 4fd2 51ba ddf6 8d3d
00000160: 5334 32ba b47b e7bc 788e 383c 86e6 d13d
00000170: f984 6bbd ee7f b0bd c046 e13d 0310 74bc
00000180: 6795 af3d a8ee debd 2f24 963d 3e24 3bbb
00000190: 55bc ed3d d6b3 94bd cde7 f6bc f7b0 59bd
000001a0: d047 cdbd a5d1 97bd 39c3 c03d 5e3e 89bd
000001b0: 24d5 bdbb 519f e0bd 9fde 8a3d f800 4a3c
000001c0: 7ba1 1abe 5f2b e2bd fe21 04be 60a5 01be
000001d0: 361b 27be 553b b3bd 5419 90bd 163a a9bc
000001e0: cc18 cbbc 3acf 3b3e 11ff 1d3d 6656 ccbd
000001f0: 7744 d73d 7821 753e 88ea 91bc 0cc6 fb3c
00000200: 57ef a23c 8911 a4bd 4d01 0d3e 6997 533d
00000210: 314c d63d ba21 64bd b431 bfbb 6d42 3e3e
00000220: ab83 05be 8542 ce3d f4a4 e53d 2b4e 8cbb
00000230: 0c4f 973d 63a2 6fbd 96c8 ee3d 4ede 81bb
00000240: 8c25 f83c 7c12 bd3d 3e03 0c3c 26b7 b23d
00000250: c65f 953c ce70 893d 0285 edbd 3ccc d2bc
00000260: c17d 363e 4aca 62bd 4502 853d 4275 e53b
00000270: ec13 d43d 2d1f 4f3c 6883 a0bd 4f5b 1abe
00000280: 18d8 44bd 7478 d5bd d120 f8bb e815 2c3e
00000290: c8a3 113e 3ce5 c0bd c5dc 87bd 5613 13bd
000002a0: c2f5 38be 629d 39be 2f83 e6bd 977c c8bd
000002b0: 7cc0 293d df06 afbd 6209 ddbd 15de 403d
000002c0: 538a 56bd 4884 a63d df84 d2bd 2ccd 003d
000002d0: bc37 d6ba ccd8 62bd 426e eabc 4870 b23c
000002e0: 13de ddbc 05c2 513c b771 483d f0a3 66bd
000002f0: a9d5 683b 034d d9bd d5fa 24bd 6424 d7bd
00000300: d7a2 babd cfdd 87bd 9fce 673d 9e75 943d
00000310: 7302 5b3d eabe 0abe ddbe 633d 743a b93d
00000320: 6405 df3c 690d 643d cfed 10bd 8e98 0dbd
00000330: 5e2d f7bd 6648 fc3c 974d 4abe ddf9 d6bb
00000340: 9cd1 653c cb81 a3bb 0e28 86bd d9e4 02be
00000350: aecc 90bd da00 1bbe 8aef 2dbe e698 e3bd
00000360: 55c6 e1bd 6a7e 24bc b3a0 b9bd f5a2 efbd
00000370: 5a0a 923d 74d7 02bd d6c3 19be 4634 b0bd
00000380: 6a5f 153e 45d1 e6bd 91af 81bc b865 31bd
00000390: 2b02 7ebd 7f78 913b 9bb7 063d 4c67 4b3b
000003a0: b830 0a3a 28ee bebd 97ea 3cbd c25d 3abd
000003b0: 837f 6d3c ac75 97bb 5e89 193e 6217 ba3d
000003c0: a24e cc3d b30f 09be 759c 04be c7ad c4bd
000003d0: 7b14 b4bd 9bd3 673d ee80 bd3d ea2f b43c
000003e0: ed61 d7bb b369 ecbd 362d 14bd 5ef6 87bc
000003f0: b5f2 f73d ca6a 23bd 4b0f d5bd 2b5a 11be

network.0.bias f4 [128]
-0.08296292 -0.19528398 0.1961534 0.046743676 -0.07753955 -0.077481315 0.18011574 0.015538264
-0.042808227 -0.15845267 0.017312316 -0.056200236 0.057606075 0.062178332 -0.046187088 0.089446634
-0.17460263 0.10210652 0.06302945 -0.03251269 0.043943208 -0.09210309 0.027826956 0.027619252
0.12811345 -0.10283356 0.028694674 0.039124813 0.12294834 -0.114646025 0.13450971 0.03885512
0.1365541 -0.07970118 -0.20583564 -0.12743822 -0.018564321 -0.053339876 -0.111531526 0.10788968
0.058306538 0.0040239813 -0.041970808 -0.05324597 -0.05067868 -0.0877192 -0.07098906 0.058359597
-0.1098266 0.05058268 -0.1118669 0.12117677 0.10406754 0.00742155 -0.054009598 0.16780858
0.10528136 0.053326145 0.18291135 -0.15519695 0.08200904 0.19082615 -0.15966614 -0.1202417
-0.23722406 -0.05687353 -0.09658774 0.13673198 -0.081343174 0.067993686 -0.057773426 0.09953075
-0.067072935 0.09737969 0.024621276 0.18389255 -0.022602933 -0.032579817 -0.028520437 -0.15150969
-0.025000138 -0.23614551 -0.06954042 -0.071542524 0.11873065 -0.11283512 -0.13754436 -0.102349035
-0.13135919 -0.07410588 0.066519395 -0.10952059 -0.032583162 -0.005049461 0.13841988 0.16147742
0.08895135 0.08881597 -0.130055 0.12885015 -0.02631316 -0.07809219 0.07190594 -0.18279082
0.07345408 -0.032634053 0.104158394 -0.14478292 -0.099759325 0.057910882 0.025705937 -0.07891571
-0.04662299 -0.14183813 -0.1926582 -0.009225495 -0.016734665 -0.0044972477 -0.059820347 -0.14591235
-0.056368794 0.15281329 0.0027947037 0.08308063 -0.09563736 -0.09666507 -0.0393448 -0.04222669
00000000: 77e8 a9bd 86f8 47be 70dc 483e 4c76 3f3d
00000010: 0ecd 9ebd 86ae 9ebd 4370 383e 3494 7e3c
00000020: ae57 2fbd 6b41 22be 8fd2 8d3c 3832 66bd
00000030: 59f4 6b3d b5ae 7e3d ac2e 3dbd cc2f b73d
00000040: 08cb 32be 391d d13d 9615 813d 072c 05bd
00000050: cbfd 333d 8ba0 bcbd 5bf5 e33c c541 e23c
00000060: 2c30 033e 679a d2bd 1811 eb3c 5741 203d
00000070: 57cc fb3d 89cb eabd eabc 093e 8c26 1f3d
00000080: d7d4 0b3e 5f3a a3bd 94c6 52be 2a7f 02be
00000090: 3414 98bc ea7a 5abd a46a e4bd 44f5 dc3d
000000a0: d6d2 6e3d 9adb 833b 95e9 2bbd 7218 5abd
000000b0: 7394 4fbd 20a6 b3bd b662 91bd 790a 6f3d
000000c0: c5ec e0bd c92f 4f3d 791a e5bd 872b f83d
000000d0: 5d21 d53d 7930 f33b 2b39 5dbd 03d6 2b3e
000000e0: c19d d73d 846c 5a3d 1d4d 3b3e f3eb 1ebe
000000f0: 5bf4 a73d ee67 433e 857f 23be 4841 f6bd
00000100: ddea 72be 38f4 68bd cbcf c5bd 7803 0c3e
00000110: 4097 a6bd 4640 8b3d d4a3 6cbd c7d6 cb3d
00000120: 895d 89bd 016f c73d 8fb2 c93c 544e 3c3e
00000130: c929 b9bc 6a72 05bd b1a3 e9bc 5b25 1bbe
00000140: 17cd ccbc 21d0 71be 356b 8ebd e384 92bd
00000150: 0e29 f33d 1916 e7bd 6ed8 0cbe 5f9c d1bd
00000160: 0683 06be d3c4 97bd 523b 883d 554c e0bd
00000170: ec75 05bd f375 a5bb f1bd 0d3e 565a 253e
00000180: 202c b63d 26e5 b53d 232d 05be 4bf1 033e
00000190: b28e d7bc ccee 9fbd 6c43 933d 842d 3bbe
000001a0: 186f 963d 49ab 05bd ff50 d53d f941 14be
000001b0: 9e4e ccbd f633 6d3d 4295 d23c 8f9e a1bd
000001c0: c0f7 3ebd 043e 11be 3148 45be 8826 17bc
000001d0: 2317 89bc a65d 93bb 2e06 75bd 0c6a 15be
000001e0: f7e2 66bd 167b 1c3e 5927 373b 2d26 aa3d
000001f0: 85dd c3bd 56f8 c5bd 0328 21bd e5f5 2cbd

network.2.weight f4 [128]
1.0628415 1.0123266 0.9543854 0.9851491 0.9936289 0.98249996 1.0022666 0.94254255
0.9476073 0.93476766 0.9736481 1.069872 1.0340496 0.9727112 1.0075654 0.99377316
1.0064703 0.9153778 1.0020069 1.0835328 1.032762 1.0133908 0.9096361 0.9775229
0.9227468 1.0279021 1.0199385 0.9533989 0.86074734 0.9713493 0.98097694 1.0165672
1.0788742 0.9494895 0.91800743 1.0395081 1.02624 0.9785867 1.0550134 1.0427104
0.9433913 1.0369946 0.96805644 0.9719645 1.0763742 0.9941399 1.0015769 1.011137
0.9449595 1.042746 0.970637 0.9839567 0.90313894 1.0338975 0.96224236 1.017055
0.96866083 0.93247414 1.0677775 1.0360572 0.8855722 1.0388278 1.0542947 0.94765484
0.8828973 1.0572201 1.0588312 1.0054159 1.0462786 0.97146434 1.0853623 1.0671974
1.0573987 1.0351374 0.93161905 0.9779507 0.9954675 0.91293335 1.0171615 1.0609041
1.0405512 1.1634017 0.9752633 1.0568922 0.98895735 1.0002999 1.0230631 0.971895
1.0405977 0.9594501 1.0293752 0.9283621 1.0666012 0.97517645 0.999381 1.0682381
1.0390143 1.0452565 0.9866075 0.907319 1.0291202 1.0476903 0.9579971 0.97969204
0.8967317 0.98826915 0.991772 0.97055405 1.000013 1.0618529 1.0414166 1.0337806
0.97545564 1.0005596 1.0071734 1.0629569 1.0146178 1.0617895 0.91783285 0.95013136
0.96885234 1.0181613 0.93942183 1.0951167 0.86265504 0.94839466 1.0152112 1.0089364
00000000: 310b 883f eb93 813f 9a52 743f bb32 7c3f
00000010: 775e 7e3f 1e85 7b3f 464a 803f 784a 713f
00000020: 6496 723f ef4c 6f3f 0041 793f 91f1 883f
00000030: bd5b 843f 9a03 793f e7f7 803f eb67 7e3f
00000040: 05d4 803f 3356 6a3f c341 803f 34b1 8a3f
00000050: 8c31 843f cab6 813f e9dd 683f f13e 7a3f
00000060: 2239 6c3f 4c92 833f 588d 823f f311 743f
00000070: f059 5c3f 59aa 783f 4e21 7b3f e01e 823f
00000080: 8d18 8a3f be11 733f 8902 6b3f 9a0e 853f
00000090: d55b 833f a884 7a3f ae0a 873f 8977 853f
000000a0: 1882 713f 3dbc 843f 8cd2 773f aad2 783f
000000b0: a1c6 893f f47f 7e3f ac33 803f f06c 813f
000000c0: dee8 713f b378 853f ab7b 783f 96e4 7b3f
000000d0: 1d34 673f c156 843f 8455 763f dc2e 823f
000000e0: 28fa 773f a0b6 6e3f efac 883f 869d 843f
000000f0: dcb4 623f 4ff8 843f 21f3 863f 8299 723f
00000100: 8f05 623f fd52 873f c887 873f 78b1 803f
00000110: 75ec 853f e3b1 783f 27ed 8a3f ed99 883f
00000120: d758 873f 627f 843f 967e 6e3f fa5a 7a3f
00000130: f5d6 7e3f 00b6 693f 5932 823f b5cb 873f
00000140: c830 853f 59ea 943f dbaa 793f 3e48 873f
00000150: 4f2c 7d3f d409 803f bbf3 823f 1cce 783f
00000160: 4e32 853f 869e 753f 91c2 833f 23a9 6d3f
00000170: 6386 883f 2aa5 793f 6fd7 7f3f 07bc 883f
00000180: 6cfe 843f f7ca 853f 4f92 7c3f 0f46 683f
00000190: 36ba 833f b71a 863f 4c3f 753f 19cd 7a3f
000001a0: 3590 653f 35ff 7c3f c5e4 7d3f 3b76 783f
000001b0: 6d00 803f ccea 873f 244d 853f ec52 843f
000001c0: 76b7 793f 5612 803f 0feb 803f f90e 883f
000001d0: ffde 813f b8e8 873f 18f7 6a3f cf3b 733f
000001e0: b506 783f 1c53 823f f37d 703f c92c 8c3f
000001f0: f6d6 5c3f fec9 723f 71f2 813f d424 813f

network.2.bias f4 [128]
-0.002261456 0.07072783 0.056457337 -0.058373746 0.0043937517 0.025734652 -0.060185518 -0.05474412
0.023562804 0.021447167 -0.040899258 0.030707441 -0.0034321917 -0.0022277883 0.014120262 -0.058693685
0.00083567225 -0.013537753 0.11563704 -0.0035022802 0.0105686085 -0.05204849 0.017508863 -0.04531313
0.035215236 0.06864589 -0.012090552 -0.12355993 0.013787367 -0.057177994 0.00907016 -0.057864737
-0.0872801 -0.014578595 -0.008392386 -0.07897274 0.013271261 0.042518724 0.041744404 -0.037717197
0.004078266 0.040657174 0.00500635 0.031396665 -0.007457014 0.050448656 -0.011394952 0.0041435137
0.06649969 0.040371045 -0.005036852 0.10747871 -0.020006265 -0.022112828 -0.02843444 -0.00289705
-0.02160631 0.022868207 0.09857774 0.05469482 0.030457536 0.056323968 -0.0014809631 0.055037018
0.011138262 0.082021564 0.015143677 -0.030635864 -0.06582468 0.050718047 -0.05955334 0.05748553
0.066315375 0.035740472 -0.1212138 -0.07287536 -0.008368667 -0.024917075 -0.117005296 -0.07709338
-0.0638919 0.055395145 0.06441466 0.04612312 0.12801258 0.07611092 0.045812227 0.021549245
0.12356794 -0.016489573 -0.02835172 0.013670411 0.024541924 0.03534653 0.021425176 0.072991975
-0.0099547515 0.056109253 -0.05076846 -0.0499999 0.047188915 0.014195039 -0.12170778 0.026853831
-0.04105803 -0.011863333 0.02650262 0.0007206945 -0.03899363 0.014521284 0.054642145 0.06487781
0.09060738 -0.06706553 0.03152729 0.052319266 -0.012691108 0.014041911 -0.0011671319 -0.028659366
-0.031160936 0.065214746 -0.022147631 -0.03583384 -0.025744723 0.08504325 0.037374 0.07367321
00000000: f034 14bb c1d9 903d cf3f 673d 4f19 6fbd
00000010: 76f9 8f3b 7ad1 d23c 1785 76bd 5f3b 60bd
00000020: c806 c13c f8b1 af3c fb85 27bd 2c8e fb3c
00000030: 9fee 60bb 1600 12bb ac58 673c ca68 70bd
00000040: 0411 5b3a 74cd 5dbc 1dd3 ec3d 8386 65bb
00000050: f527 2d3c cc30 55bd bf6e 8f3c 439a 39bd
00000060: da3d 103d 3796 8c3d 7317 46bc fd0c fdbd
00000070: 69e4 613c 7933 6abd 029b 143c 9303 6dbd
00000080: e9bf b2bd 0fdb 6ebc 3880 09bc 76bc a1bd
00000090: b46f 593c 1d28 2e3d 2efc 2a3d 597d 1abd
000000a0: faa2 853b 2388 263d 4f0c a43b ca99 003d
000000b0: f859 f4bb 40a3 4e3d e5b1 3abc 50c6 873b
000000c0: fd30 883d 1c5c 253d 2d0c a5bb cc1d dc3d
000000d0: 2ee4 a3bc f625 b5bc 58ef e8bc 6fdc 3dbb
000000e0: b7ff b0bc 1b56 bb3c 20e3 c93d ad07 603d
000000f0: 1582 f93c f6b3 663d e01c c2ba 7f6e 613d
00000100: 427d 363c ecfa a73d 2f1d 783c 10f8 fabc
00000110: 17cf 86bd babd 4f3d 34ee 73bd f275 6b3d
00000120: 5bd0 873d 9a64 123d f13e f8bd ad3f 95bd
00000130: bc1c 09bc e51e ccbc 79a0 efbd 22e3 9dbd
00000140: c2d9 82bd 05e6 623d d5eb 833d 99eb 3c3d
00000150: bb15 033e 0be0 9b3d 9aa5 3b3d 0b88 b03c
00000160: 3011 fd3d 2415 87bc de41 e8bc dcf9 5f3c
00000170: 250c c93c 86c7 103d da83 af3c d17c 953d
00000180: 4119 23bc d1d2 653d 97f2 4fbd b2cc 4cbd
00000190: 2a49 413d 4f92 683c ee41 f9bd 91fc db3c
000001a0: 772c 28bd 6d5e 42bc 061c d93c fdec 3c3a
000001b0: c9b7 1fbd aeea 6d3c 71d0 5f3d a8de 843d
000001c0: 5d90 b93d a759 89bd c222 013d ba4c 563d
000001d0: 5dee 4fbc 0b10 663c 73fa 98ba 0cc7 eabc
000001e0: 3845 ffbc 4f8f 853d f36e b5bc 81c6 12bd
000001f0: 99e6 d2bc 282b ae3d 7b15 193d fbe1 963d

network.2.running_mean f4 [128]
0.280642 0.17641456 0.41617996 0.27063733 0.16496171 0.2871332 0.3496186 0.21482675
0.31203336 0.24993773 0.32154426 0.3969048 0.36252055 0.3075747 0.16692051 0.30682585
0.14998178 0.36727464 0.2345533 0.22909749 0.34635326 0.2285867 0.22985464 0.3219888
0.31376386 0.15296781 0.41782433 0.3514523 0.3122043 0.14869961 0.39348337 0.38132402
0.30045384 0.16821998 0.25863755 0.1849122 0.23679058 0.2907439 0.17098884 0.29024053
0.34557486 0.2625297 0.18609205 0.29227445 0.26966348 0.3313102 0.2598307 0.32326937
0.2309985 0.29448232 0.28528428 0.41807586 0.29703462 0.31703946 0.3726359 0.42195418
0.2859481 0.27239707 0.39043212 0.23554671 0.3815471 0.33705953 0.2053209 0.22037126
0.06341153 0.2573271 0.23136914 0.27248606 0.20385906 0.23388098 0.20056956 0.3801301
0.26576933 0.38132238 0.2693675 0.32151744 0.2535348 0.32892135 0.24013616 0.26898494
0.27483043 0.21510226 0.29451728 0.21141616 0.28094915 0.23958072 0.20018104 0.30524877
0.25514612 0.22592917 0.28999949 0.22843128 0.2050223 0.26015905 0.38499072 0.25293255
0.2786859 0.40630552 0.16260144 0.31102315 0.32882458 0.24906856 0.31931344 0.14622161
0.41002834 0.33382326 0.31356946 0.23820597 0.24877664 0.36293828 0.27086583 0.3413208
0.22520079 0.14909074 0.14537708 0.35564256 0.2620739 0.22160566 0.21179415 0.23234919
0.16937794 0.34041542 0.22510074 0.3613165 0.24686068 0.22688757 0.28051528 0.26076776
00000000: 4fb0 8f3e 05a6 343e 8a15 d53e fa90 8a3e
00000010: b9eb 283e 1f03 933e 3601 b33e 8bfb 5b3e
00000020: d6c2 9f3e adef 7f3e 73a1 a43e 1b37 cb3e
00000030: 4b9c b93e 6e7a 9d3e 36ed 2a3e 4718 9d3e
00000040: d394 193e 6c0b bc3e be2e 703e 8898 6a3e
00000050: 3755 b13e a212 6a3e 045f 6b3e b7db a43e
00000060: a8a5 a03e 98a3 1c3e 12ed d53e 8ef1 b33e
00000070: 3ed9 9f3e b644 183e a776 c93e e73c c33e
00000080: 16d5 993e dc41 2c3e 246c 843e a059 3d3e
00000090: 3b79 723e 62dc 943e b317 2f3e 689a 943e
000000a0: 30ef b03e 4b6a 863e ea8e 3e3e ffa4 953e
000000b0: 5511 8a3e 7ea1 a93e 8808 853e 9083 a53e
000000c0: df8a 6c3e 63c6 963e c810 923e 0a0e d63e
000000d0: ec14 983e ff52 a23e 22ca be3e 610a d83e
000000e0: ca67 923e a177 8b3e b8e6 c73e 2833 713e
000000f0: 245a c33e 1193 ac3e a43f 523e 01a9 613e
00000100: e7dd 813d 61c0 833e 08ec 6c3e 4b83 8b3e
00000110: 6ec0 503e 7f7e 6f3e 1b62 4d3e 6aa0 c23e
00000120: eb12 883e b03c c33e 89ea 893e ef9d a43e
00000130: 50cf 813e 6168 a83e 41e6 753e 65b8 893e
00000140: 93b6 8c3e c443 5c3e f8ca 963e 7a7d 583e
00000150: 91d8 8f3e a654 753e 42fc 4c3e 9149 9c3e
00000160: 83a2 823e fa59 673e d07a 943e e4e9 693e
00000170: 5ef1 513e 9133 853e 811d c53e 6080 813e
00000180: ebaf 8e3e 4707 d03e fe80 263e 6d3e 9f3e
00000190: b25b a83e d40b 7f3e 0d7d a33e 1ebb 153e
000001a0: 3cef d13e e2ea aa3e 2d8c a03e 44ec 733e
000001b0: 4ebf 7e3e 0cd3 b93e edae 8a3e 9ac1 ae3e
000001c0: 099b 663e 3eab 183e bbdd 143e c816 b63e
000001d0: 8d2e 863e 98ec 623e 91e0 583e f2ec 6d3e
000001e0: 6971 2d3e ee4a ae3e cf80 663e 7afe b83e
000001f0: 0cc9 7c3e 3755 683e b39f 8f3e 5a83 853e

network.2.running_var f4 [128]
0.15908486 0.12487202 0.32107657 0.1857913 0.12312804 0.21267396 0.18282288 0.12013913
0.3817345 0.2388607 0.294906 0.44781643 0.2564071 0.3385665 0.06837123 0.20154104
0.119120605 0.30522263 0.10176923 0.13419162 0.28339902 0.2219789 0.1388532 0.21300083
0.19591372 0.09106923 0.45246276 0.28281766 0.1549989 0.06578368 0.27408215 0.41887915
0.16101776 0.09070775 0.23668134 0.1270757 0.14979792 0.2986869 0.11479142 0.16244419
0.22094662 0.18624559 0.117718905 0.28833014 0.20717229 0.46441546 0.22004315 0.2351506
0.14952388 0.15005185 0.22412257 0.5248635 0.16161475 0.29398406 0.32959965 0.25554216
0.17153695 0.17376329 0.19733828 0.26866165 0.33187044 0.21746223 0.23420748 0.18044432
0.048420914 0.20086002 0.12310126 0.13559285 0.10480478 0.08008289 0.12476377 0.23317693
0.26775503 0.18343008 0.2990076 0.1925032 0.22189406 0.49345848 0.21119575 0.22176066
0.2471765 0.18166985 0.15028498 0.16297635 0.14374828 0.18202129 0.15006633 0.23032215
0.18554713 0.17787062 0.2267142 0.16465333 0.12454835 0.15117492 0.3041362 0.09887639
0.16690981 0.44485438 0.12441491 0.19393879 0.19723979 0.18685235 0.21514042 0.1164478
0.4777703 0.30436793 0.21928793 0.28320438 0.20775974 0.2307146 0.16320676 0.258342
0.15097149 0.10328902 0.072130956 0.2906899 0.17572406 0.17163353 0.15188892 0.15446922
0.099532574 0.20519173 0.124243915 0.2557789 0.16739736 0.13215588 0.26966557 0.1712953
00000000: 24e7 223e e7bc ff3d 2664 a43e 1340 3e3e
00000010: 8e2a fc3d 34c7 593e ec35 3b3e 810b f63d
00000020: b472 c33e e697 743e ebfd 963e 3248 e53e
00000030: cb47 833e 9758 ad3e 3706 8c3d c660 4e3e
00000040: 81f5 f33d 2446 9c3e 636c d03d 8769 093e
00000050: ad19 913e 704e 633e 892f 0e3e e41c 5a3e
00000060: 9b9d 483e 8182 ba3d 33a9 e73e 7acd 903e
00000070: 08b8 1e3e 98b9 863d 7f54 8c3e 5477 d63e
00000080: d7e1 243e fcc4 b93d 985c 723e 2220 023e
00000090: a064 193e 7ded 983e c417 eb3d c557 263e
000000a0: d53f 623e 2ab7 3e3e 9c16 f13d 02a0 933e
000000b0: f924 543e ddc7 ed3e fe52 613e 52cb 703e
000000c0: ca1c 193e 31a7 193e 6380 653e 745d 063f
000000d0: 567e 253e 1485 963e 49c1 a83e 6cd6 823e
000000e0: 62a7 2f3e 01ef 313e 0c13 4a3e 058e 893e
000000f0: ecea a93e 6bae 5e3e 16d4 6f3e 65c6 383e
00000100: 0255 463d 40ae 4d3e 831c fc3d dad8 0a3e
00000110: e3a3 d63d 8002 a43d 2684 ff3d efc5 6e3e
00000120: 3017 893e 18d5 3b3e 8617 993e 8f1f 453e
00000130: 3238 633e 97a6 fc3e b343 583e 3a15 633e
00000140: d61b 7d3e a907 3a3e 4ee4 193e 46e3 263e
00000150: c032 133e ca63 3a3e fdaa 193e 92d9 6b3e
00000160: 1100 3e3e b723 363e c427 683e e29a 283e
00000170: 3513 ff3d 99cd 1a3e bdb7 9b3e b47f ca3d
00000180: 68ea 2a3e f4c3 e33e 3fcd fe3d e497 463e
00000190: 3af9 493e 3956 3f3e c54d 5c3e 2f7c ee3d
000001a0: 4f9e f43e 1dd6 9b3e 048d 603e 2a00 913e
000001b0: f8be 543e 7340 6c3e ac1f 273e 6745 843e
000001c0: 4598 1a3e 3289 d33d 65b9 933d 4ed5 943e
000001d0: 02f1 333e b3c0 2f3e c588 1b3e 2e2d 1e3e
000001e0: bcd7 cb3d c81d 523e 9873 fe3d 74f5 823e
000001f0: 376a 2b3e df53 073e 9b11 8a3e 0968 2f3e

network.4.weight f4 [64, 128]
-0.0972689 -0.017644582 -0.07946674 0.00016861192 0.058067076 -0.0024690987 0.09877844 -0.050218422
-0.015179781 -0.11043348 -0.030738002 0.018517869 -0.044682838 0.07950011 -0.08538657 -0.033485636
0.021639653 0.0033326352 0.033997323 -0.07148521 0.0051036864 0.011535383 -0.017922545 -0.12696831
-0.03703459 -0.041222923 0.028256448 -0.07159162 -0.05205814 -0.04955855 -0.01654397 0.12712424
0.0060282275 -0.14220427 -0.04633943 0.027835498 0.0066274926 -0.023551248 -0.049916428 -0.001441675
-0.01925171 -0.05484145 0.016623681 0.057881292 -0.14177315 -0.07278319 0.02932046 -0.09931883
-0.007430436 -0.04430518 0.046132438 -0.009515711 -0.017271403 -0.118476115 -0.035895996 -0.031051798
0.10097314 -0.100809306 -0.19034308 0.01689383 -0.06780171 0.018669857 0.050656293 0.017775891
-0.015059311 -0.011884065 -0.04071354 0.11370251 0.060691286 -0.11802296 -0.18800162 -0.04038348
0.008858907 -0.020861402 -0.14506838 0.023072548 0.086627275 0.010638317 0.004958583 -0.15454467
-0.020429244 -0.16130975 -0.011103129 0.021948433 -0.11488867 0.088105604 -0.0026176134 0.022608804
-0.064499065 -0.008299065 -0.109745204 0.01067762 0.020419171 -0.06396232 0.008911926 -0.062140875
-0.03410598 0.10342618 0.0884749 0.0044383663 -0.05145894 -0.06170482 -0.04529574 -0.05082848
-0.048949916 -0.041012224 0.037816714 0.0044040238 0.007957687 -0.15225574 0.14847195 -0.083489195
0.06747972 -0.10241205 0.08029667 -0.09830621 0.053268477 -0.049545366 -0.019452749 0.02143156
0.032458257 0.060393702 -0.08389901 -0.07161051 0.06011971 -0.071284994 0.020990895 0.02244822
0.012102232 0.012891738 -0.08164464 -0.025755085 -0.0051589203 0.026853083 0.063863024 0.009057249
-0.04987834 -0.006559985 -0.038300157 0.079876065 -0.1560122 -0.05873384 -0.012085584 -0.014776862
0.075280435 -0.009899008 0.06805636 -0.20554298 -0.009609409 -0.0543961 0.036679193 0.12854674
0.00045141295 -0.05842452 -0.05347424 0.0024434137 0.11279319 -0.09885378 0.010449425 -0.022631468
0.10237181 -0.040221334 -0.018010784 0.061326686 0.09697946 -0.025398096 -0.12337552 -0.091673076
-0.06953265 0.12310706 -0.023778185 0.0011126084 -0.069079705 -0.022917958 0.18002471 -0.10197122
-0.04425145 0.017513445 -0.006420999 0.022286631 -0.02772584 -0.030735182 -0.008050757 -0.061321314
0.067961104 -0.008067987 -0.05770923 -0.08382443 0.009744285 -0.026654635 0.14637166 0.120208204
-0.049812827 -0.06492706 -0.011769376 -0.09837487 0.028952125 0.01652446 -0.15209346 -0.12620167
0.03045924 -0.12612875 0.070977435 -0.010242785 -0.0037176139 -0.023808394 -0.047655247 0.05425686
-0.01694979 -0.03528944 0.04827495 0.072948515 0.07592292 0.03986132 0.0006475973 -0.022767551
-0.07583532 -0.0092040645 -0.05809052 0.010472633 0.037083745 -0.016556585 0.052223735 -0.0843242
0.029523654 0.07004426 0.12826568 0.027938597 -0.051316045 -0.023803914 0.11287805 -0.14041962
0.015009033 0.004032963 0.017167078 -0.133418 0.06428396 -0.15646301 -0.031425137 -0.042908255
0.005157495 -0.06097319 0.07133585 -0.15910545 -0.055439662 -0.063617826 -0.12724425 -0.10052999
-0.020835444 -0.051355265 0.08408483 0.019304398 -0.033360623 -0.082108974 -0.041566778 -0.052414235
00000000: eb34 c7bd 5f8b 90bc 75bf a2bd 6bcd 3039
00000010: bed7 6d3d 9ad0 21bb 5a4c ca3d d5b1 4dbd
00000020: 9eb4 78bc f32a e2bd 43ce fbbc c9b2 973c
00000030: 5a05 37bd f4d0 a23d 27df aebd 3c28 09bd
00000040: a445 b13c 5768 5a3b c740 0b3d d666 92bd
00000050: d33c a73b e7fe 3c3c 4dd2 92bc fb03 02be
00000060: 95b1 17bd 5ed9 28bd 117a e73c a19e 92bd
00000070: eb3a 55bd e8fd 4abd 3887 87bc db2c 023e
00000080: 7088 c53b ff9d 11be 6ace 3dbd 4507 e43c
00000090: 702b d93b 8cee c0bc 2b75 4cbd 96f6 bcba
000000a0: c3b5 9dbc 6ea1 60bd 632e 883c ef14 6d3d
000000b0: fb2c 11be 5a0f 95bd 7631 f03c ac67 cbbd
000000c0: 047b f3bb 5979 35bd 5ef5 3c3d c9e7 1bbc
000000d0: c27c 8dbc 9ba3 f2bd ae07 13bd 5760 febc
000000e0: 01cb ce3d 1c75 cebd 4ce9 42be ee64 8a3c
000000f0: 9fdb 8abd 87f1 983c f97c 4f3d bf9e 913c
00000100: 54bb 76bc 62b5 42bc 3ec3 26bd dddc e83d
00000110: 6d97 783d 06b6 f1bd 7f83 40be 2669 25bd
00000120: f324 113c 88e5 aabc ce8c 14be a402 bd3c
00000130: a469 b13d 564c 2e3c 9c7b a23b f540 1ebe
00000140: 3b5b a7bc 622e 25be e6e9 35bc 33cd b33c
00000150: c04a ebbd b670 b43d 448c 2bbb 1936 b93c
00000160: 1618 84bd cdf8 07bc 18c2 e0bd 2ff1 2e3c
00000170: 1b46 a73c adfe 82bd 5403 123c 6e87 7ebd
00000180: b6b2 0bbd 1bd1 d33d 5432 b53d b76f 913b
00000190: 9cc6 52bd 31be 7cbd 0788 39bd 8631 50bd
000001a0: b57f 48bd 6ffc 27bd b3e5 1a3d a14f 903b
000001b0: f560 023c eee8 1bbe 0809 183e 62fc aabd
000001c0: cf32 8a3d 69bd d1bd 9572 a43d c454 c9bd
000001d0: 0c30 5a3d 15f0 4abd 5f5b 9fbc 3d91 af3c
000001e0: f3f2 043d 635f 773d 3fd3 abbd 88a8 92bd
000001f0: 1640 763d defd 91bd 19f5 ab3c 54e5 b73c
00000200: 7148 463c de37 533c 4e35 a7bd 54fc d2bc
00000210: 290c a9bb fffa db3c 9eca 823d db64 143c
00000220: 3b4d 4cbd 25f5 d6bb a0e0 1cbd 1096 a33d
00000230: aac1 1fbe e592 70bd 9d02 46bc a71a 72bc
00000240: a12c 9a3d 732f 22bc 2261 8b3d dc79 52be
00000250: c870 1dbc 72ce 5ebd ec3c 163d c2a1 033e
00000260: 9fab ec39 8d4e 6fbd ce07 5bbd ae21 203b
00000270: 1e00 e73d da73 cabd 1134 2b3c a165 b9bc
00000280: 50a8 d13d 20bf 24bd 5a8b 93bc b131 7b3d
00000290: 2b9d c63d ab0f d0bc 4eac fcbd 18bf bbbd
000002a0: 2267 8ebd 8e1f fc3d 78ca c2bc f1d4 913a
000002b0: a979 8dbd 71be bbbc 6658 383e 49d6 d0bd
000002c0: 0241 35bd 5b78 8f3c 3e67 d2bb 7492 b63c
000002d0: 4d21 e3bc 59c8 fbbc 53e7 03bc 0f2c 7bbd
000002e0: 312f 8b3d 972f 04bc 8360 6cbd 25ac abbd
000002f0: 7ea6 1f3c d25a dabc 74e2 153e b82f f63d
00000300: 8908 4cbd 7af8 84bd 57d4 40bc c478 c9bd
00000310: 022d ed3c 4e5e 873c 63be 1bbe 033b 01be
00000320: a885 f93c e527 01be 9e5c 913d 5bd1 27bc
00000330: 36a3 73bb d209 c3bc 2632 43bd 713c 5e3d
00000340: 49da 8abc a98b 10bd f4bb 453d 0866 953d
00000350: 7a7d 9b3d a045 233d 85c3 293a 0483 babc
00000360: 8c4f 9bbd a5cc 16bc 53f0 6dbd 6895 2b3c
00000370: 20e5 173d ada1 87bc 8ee8 553d 2bb2 acbd
00000380: 97db f13c 5d73 8f3d 1458 033e 7cdf e43c
00000390: c630 52bd 6d00 c3bc 9b2c e73d 29ca 0fbe
000003a0: 72e8 753c f226 843b f9a1 8c3c ba9e 08be
000003b0: 4fa7 833d d737 20be a5b7 00bd 91c0 2fbd
000003c0: 3400 a93b 06bf 79bd 8818 923d 8aec 22be
000003d0: b314 63bd 104a 82bd 514c 02be abe2 cdbd
000003e0: 18af aabc e659 52bd ab34 ac3d 4224 9e3c
000003f0: 26a5 08bd c028 a8bd ed41 2abd 4fb0 56bd

network.4.bias f4 [64]
0.0036675127 -0.034098208 -0.05161414 -0.042826355 0.07735577 0.07896765 0.02757478 -0.04156719
-0.015005201 0.07173565 -0.065564096 -0.009133844 -0.065911904 0.056173652 0.13337834 -0.043509986
0.15983585 0.09698078 0.0095185945 0.08505859 -0.069457464 0.03684942 0.085716106 0.1343771
0.032204825 -0.103433706 -0.030753136 0.033862352 0.02925 -0.13384072 -0.104287826 0.07815749
0.07723777 0.01783133 0.099074654 0.036398016 0.07380195 -0.070864774 0.115921 0.05223093
0.06632021 -0.030939102 -0.0020983475 0.0033360533 0.058353484 -0.00838621 0.005567363 -0.052421037
0.08595158 0.13285 0.047846973 0.004308393 0.022778183 0.007325714 0.09681992 -0.070257224
0.025188414 0.04870962 0.14204821 0.048854806 -0.009019701 -0.03332265 0.010464308 -0.038090147
00000000: a75a 703b 90aa 0bbd 5969 53bd b06a 2fbd
00000010: b46c 9e3d cbb9 a13d 81e4 e13c 5c42 2abd
00000020: 60d8 75bc 24ea 923d 7846 86bd 1ea6 15bc
00000030: d2fc 86bd 5816 663d 5594 083e 8737 32bd
00000040: 02ac 233e dc9d c63d e1f3 1b3c 3333 ae3d
00000050: b73f 8ebd 6bef 163d ed8b af3d 279a 093e
00000060: 35e9 033d 0dd5 d3bd 00ee fbbc 40b3 0a3d
00000070: b29d ef3c 8b0d 09be db94 d5bd 0911 a03d
00000080: d62e 9e3d 0213 923c a7e7 ca3d 1616 153d
00000090: 7a25 973d 8d21 91bd fd67 ed3d 1af0 553d
000000a0: e4d2 873d 0074 fdbc 6e84 09bb b0a1 5a3b
000000b0: 1004 6f3d 5066 09bc 6d6e b63b 71b7 56bd
000000c0: 6207 b03d d509 083e 30fb 433d 6c2d 8d3b
000000d0: 5099 ba3c 8b0c f03b 8649 c63d 05e3 8fbd
000000e0: ef57 ce3c bd83 473d 1675 113e fa1b 483d
000000f0: 5ec7 13bc 557d 08bd 7d72 2b3c 6a04 1cbd

network.6.weight f4 [64]
1.0061761 1.0927695 1.0034274 0.9342177 0.98387235 0.9883783 0.96379995 0.9151701
0.9872868 0.8799065 1.065806 0.93146086 0.98852825 0.94080555 1.0360315 0.9119731
1.0304375 0.9862045 0.98903656 1.1037269 1.0219319 0.9877984 1.0039988 0.9982801
1.0010625 1.0375851 1.0658914 1.0222665 1.0569023 0.9937966 0.9249958 1.0103686
1.0923779 0.9467665 0.97568566 0.9746278 1.0466403 1.0289768 1.0975454 1.0021946
0.99537945 0.93604237 1.0307198 1.0069929 0.95027214 0.9549734 1.0147332 0.9989867
1.0024339 1.0176941 0.9986866 1.0069381 1.0843812 1.0059212 0.98533565 1.015313
0.97616833 0.9307923 1.0104635 1.0221997 0.9866961 0.9512702 1.0087274 1.0071509
00000000: 61ca 803f dfdf 8b3f 4f70 803f e428 6f3f
00000010: 0fdf 7b3f 5c06 7d3f 98bb 763f 9648 6a3f
00000020: d4be 7c3f 8d41 613f 556c 883f 3874 6e3f
00000030: 3010 7d3f a2d8 703f ae9c 843f 1277 693f
00000040: 60e5 833f e677 7c3f 8031 7d3f ec46 8d3f
00000050: aace 823f 5be0 7c3f 0883 803f 498f 7f3f
00000060: d122 803f 97cf 843f 216f 883f a1d9 823f
00000070: 9348 873f 7469 7e3f 86cc 6c3f c253 813f
00000080: 0ad3 8b3f 4a5f 723f 89c6 793f 3581 793f
00000090: 4ff8 853f 83b5 833f 5e7c 8c3f ea47 803f
000000a0: 30d1 7e3f 79a0 6f3f a0ee 833f 25e5 803f
000000b0: 0945 733f 2379 743f c7e2 813f 98bd 7f3f
000000c0: c14f 803f cd43 823f eda9 7f3f 59e3 803f
000000d0: 01cd 8a3f 07c2 803f f53e 7c3f c7f5 813f
000000e0: 2be6 793f 6748 6e3f de56 813f 71d7 823f
000000f0: 1e98 7c3f 7286 733f fb1d 813f 52ea 803f

network.6.bias f4 [64]
0.012029173 0.023031607 0.07081755 0.042813007 0.11471325 -0.0682525 0.009254328 0.0007389917
-4.7065376e-05 -0.018782727 -0.006593779 -0.05328129 0.045450654 -0.081760265 0.047386356 0.02337844
0.02572417 0.02780266 0.11305978 0.035806764 0.05919918 0.015946122 -0.06782289 0.008832374
0.040399585 -0.03836552 -0.014795671 0.06661962 0.001130133 -0.043500766 0.019300599 0.04011477
0.047563173 -0.0041358443 0.024482498 -0.032150812 0.024374155 0.013092665 -0.082868844 0.041142408
-0.009660181 0.103934504 0.016166644 -0.035013746 0.017155599 0.052598413 0.056308582 -0.012895976
0.000287849 0.014313684 -0.025617914 0.07757275 -0.060197737 -0.015978191 0.005301326 0.028795486
0.039980717 -0.0141612 -0.009443366 -0.05144782 0.08407154 0.048007227 0.059153654 -0.030234857
00000000: 0216 453c c8ac bc3c cb08 913d b15c 2f3d
00000010: c8ee ea3d f7c7 8bbd 779f 173c e5b8 413a
00000020: 1068 45b8 3cde 99bc a110 d8bb 7b3d 5abd
00000030: 772a 3a3d ed71 a7bd 3218 423d 2484 bf3c
00000040: 7fbb d23c 67c2 e33c e38b e73d 1daa 123d
00000050: d77a 723d 71a1 823c bae6 8abd a9b5 103c
00000060: 097a 253d 2a25 1dbd 8b69 72bc de6f 883d
00000070: f920 943a dc2d 32bd 4a1c 9e3c 634f 243d
00000080: 9ad1 423d fa85 87bb 858f c83c 92b0 03bd
00000090: 4fac c73c 9e82 563c 24b7 a9bd f184 283d
000000a0: bc45 1ebc 9ddb d43d e96f 843c 936a 0fbd
000000b0: e689 8c3c 6f71 573d d4a3 663d a549 53bc
000000c0: 70ea 9639 f183 6a3c a9dc d1bc 76de 9e3d
000000d0: e791 76bd b2e4 82bc bfb6 ad3b 83e4 eb3c
000000e0: d2c2 233d 6104 68bc 59b8 1abc f3ba 52bd
000000f0: b32d ac3d 3aa3 443d 1a4b 723d 17af f7bc

network.6.running_mean f4 [64]
0.76714987 0.79350483 0.70404816 0.6139064 0.74877435 0.5312023 0.67345744 0.46056986
0.68039083 0.48491302 0.58243364 0.62225145 0.7190297 0.54008937 0.71314013 0.49448234
1.0245514 0.8180542 0.68009114 0.97320175 0.757491 0.8204019 0.69768983 0.8015044
0.6204091 0.4929981 0.77040833 0.6109613 0.6695721 0.46471462 0.4400157 1.0180345
0.82228523 0.5384466 0.65093845 0.6533824 0.83761376 0.56081384 0.8949526 0.7521016
0.71437067 0.46788982 0.7461 0.7007842 0.6457637 0.6736443 0.70076996 0.5961132
0.84458196 0.88210475 0.5000579 0.73352903 0.72947365 0.6645178 0.8680415 0.62689215
0.65829176 0.44279474 0.8152708 0.8760519 0.8100022 0.51947045 0.69531286 0.5661912
00000000: ef63 443f 2223 4b3f 803c 343f f828 1d3f
00000010: adaf 3f3f e0fc 073f b567 2c3f d0cf eb3e
00000020: 182e 2e3f 8546 f83e 5f1a 153f df4b 1f3f
00000030: 5512 383f 4c43 0a3f 5a90 363f ca2c fd3e
00000040: 8024 833f 006c 513f 741a 2e3f c023 793f
00000050: eeea 413f dc05 523f cd9b 323f 642f 4d3f
00000060: 21d3 1e3f 3f6a fc3e 7b39 453f f667 1c3f
00000070: 1469 2b3f 13ef ed3e bd49 e13e f44e 823f
00000080: 4981 523f a3d7 093f e7a3 263f 1244 273f
00000090: db6d 563f 7f91 0f3f 9d1b 653f bb89 403f
000000a0: ffe0 363f 418f ef3e 6900 3f3f 9866 333f
000000b0: c550 253f f473 2c3f a965 333f e09a 183f
000000c0: 8636 583f 9ed1 613f cb03 003f 8fc8 3b3f
000000d0: c9be 3a3f d71d 2a3f f837 5e3f 017c 203f
000000e0: cf85 283f feb5 e23e 96b5 503f f044 603f
000000f0: 4e5c 4f3f 04fc 043f 0600 323f e8f1 103f

network.6.running_var f4 [64]
1.0472202 1.5136843 1.9006871 0.62327355 1.6846889 0.7112925 0.7282896 0.8008909
0.7280754 0.41176417 0.6378066 1.2323463 1.8269659 0.8009461 1.1958429 0.84311515
1.9676332 1.8638456 1.255113 1.9658718 1.069633 1.6294549 0.9359483 1.1495763
1.0810044 0.7333128 2.4350846 0.6530329 0.78218424 0.9538007 0.6714861 1.7364595
1.3510597 0.50182134 0.88446033 1.273471 1.5051821 1.2682184 1.5278711 1.4267948
1.6194043 0.7938167 1.4041637 1.4114416 0.98885655 0.96303636 1.6750755 1.1957111
1.528919 1.8202314 0.5076207 1.39275 1.3194588 1.077682 1.7421389 1.2874931
1.3311805 0.32903543 1.3301011 1.6727513 1.7321659 0.9136906 1.2426125 1.0169427
00000000: 500b 863f 68c0 c13f b749 f33f db8e 1f3f
00000010: e3a3 d73f 4417 363f 3071 3a3f 3007 4d3f
00000020: 2663 3a3f c1d2 d23e 4b47 233f 86bd 9d3f
00000030: 05da e93f ce0a 4d3f 6111 993f 65d6 573f
00000040: 68db fb3f 7e92 ee3f 8ba7 a03f b0a1 fb3f
00000050: bce9 883f fa91 d03f 4f9a 6f3f 5125 933f
00000060: 5a5e 8a3f 63ba 3b3f 6dd8 1b40 2a2d 273f
00000070: 3a3d 483f 482c 743f 83e6 2b3f 4e44 de3f
00000080: 86ef ac3f 5d77 003f fe6b 623f 1901 a33f
00000090: cfa9 c03f fb54 a23f 4891 c33f 36a1 b63f
000000a0: a448 cf3f 9237 4b3f a3bb b33f 1eaa b43f
000000b0: b425 7d3f 8d89 763f e068 d63f 100d 993f
000000c0: 9eb3 c33f 58fd e83f 6ef3 013f a245 b23f
000000d0: 07e4 a83f 7cf1 893f 68fe de3f 93cc a43f
000000e0: 1f64 aa3f 5577 a83e c140 aa3f b71c d63f
000000f0: 9db7 dd3f a1e7 693f ed0d 9f3f 2e2b 823f

network.8.weight f4 [32, 64]
0.08094986 0.08284111 0.04767304 0.028687267 -0.022762885 0.004232694 0.023116153 0.058689427
-0.05079242 -0.021214146 0.12204802 0.091787554 0.18228045 -0.18783179 -0.1377498 0.013880988
0.00026230246 -0.06409535 0.04667485 -0.068806864 0.08480112 -0.11044001 -0.000115650706 -0.13195808
0.14509033 0.10569298 -0.02441021 0.0028533125 0.15987033 -0.06864923 -0.020208614 -0.1486747
0.011674141 -0.23375055 -0.0074085323 0.059080828 -0.16421945 0.049216818 0.1030273 0.03108634
0.07830675 0.020181978 0.18386689 0.006100883 -0.042375874 -0.051740296 0.13860297 -0.05314256
0.1454 -0.07928537 -0.059255734 0.005539215 0.048103902 -0.031812232 -0.018819101 0.13124952
0.07992888 0.064047694 -0.09452505 -0.011846399 0.01706393 0.0864515 -0.09741704 -0.031269092
-0.1013045 0.11015775 0.0703923 -0.007900029 0.083081685 -0.08298042 -0.0003720803 0.06569459
-0.115000576 -0.09900408 0.034170117 0.090607926 0.09939624 -0.091036566 -0.101301774 0.0065127895
0.00425502 -0.017551623 -0.10890833 -0.061611954 0.061087422 0.05730326 0.06886027 -0.02891283
-0.03150836 -0.02092154 -0.021666545 -0.0739869 -0.1469241 0.015303276 0.060417656 0.014710053
-0.09040628 0.0054121944 0.1246829 0.072282486 -0.107646435 -0.078225784 -0.13576742 0.089712776
-0.13179982 -0.105372965 0.07262279 0.085545704 0.08328451 -0.030996574 0.14964406 0.043605834
-0.026882954 -0.01481336 0.12982541 -0.115361825 -0.100159116 0.00568858 -0.10626486 0.06481445
0.028111963 -0.05194707 0.067340985 -0.03805985 -0.060599767 -0.027712667 0.023897922 -0.03284595
-0.14247654 -0.01740937 0.11176167 -0.11892335 0.13837679 -0.0006759913 -0.12739192 0.00052919006
-0.19794859 -0.057020616 -0.11526673 -0.14593872 0.022769053 0.020712752 -0.097268544 0.022859508
0.096005514 0.08189726 0.07161359 -0.024416301 0.050726887 0.06759075 -0.0018521494 -0.08012663
0.023178581 0.05305348 -0.10349007 0.048633702 -0.0340612 -0.08543393 -0.036976207 0.0083359005
0.05320227 0.044568796 0.033954263 0.099209696 0.049454264 -0.025464965 0.023599735 -0.04916617
0.08556315 0.045989454 0.02200053 0.04019784 0.077683225 -0.0036122764 0.037545014 0.01817186
-0.19293892 0.007401906 -0.112795524 -0.03524634 -0.03783377 -0.10244306 0.10985448 -0.07127494
-0.07813996 0.0643613 0.088260345 -0.0075873835 0.0014978214 0.09387402 0.032290928 -0.09814818
0.00889125 -0.13629219 0.06749862 -0.023236856 0.03176249 -0.03400825 -0.101461306 -0.05217766
-0.071734145 0.03505898 -0.09062439 0.0594484 0.08272506 0.011152806 0.17688331 0.0027144253
0.09582097 -0.061743543 0.08753592 0.14155808 -0.10657248 -0.010454655 -0.061179712 0.07133264
-0.0856197 -0.07242722 -0.08049412 0.02222532 -0.094397396 -0.10463316 -0.10209916 0.13658734
0.031095136 -0.0018476 0.026336884 0.048296917 0.16962145 -0.09643645 -0.1374658 -0.061504107
0.075574145 0.12474822 -0.002066547 -0.0915698 0.028663343 0.025790008 0.013746565 -0.061734334
-0.14623322 -0.0352346 -0.033005442 0.05790853 0.021974996 0.04573167 0.104847945 -0.0383922
-0.039072286 0.06653858 -0.018360585 0.12411615 0.10163982 0.049135022 0.1363005 -0.07717649
00000000: 0ac9 a53d 9aa8 a93d ce44 433d 8f01 eb3c
00000010: 3b79 babc 69b2 8a3b 165e bd3c 5364 703d
00000020: b60b 50bd 4ac9 adbc 50f4 f93d 1dfb bb3d
00000030: baa7 3a3e fa56 40be 490e 0dbe 156d 633c
00000040: a485 8939 6c44 83bd 212e 3f3d 9dea 8cbd
00000050: 36ac ad3d 5f2e e2bd 8089 f2b8 0520 07be
00000060: 8f92 143e 9075 d83d ecf7 c7bc a4fe 3a3b
00000070: 0cb5 233e f897 8cbd 898c a5bc 2e3e 18be
00000080: e544 3f3c 4e5c 6fbe 46c3 f2bb bdfe 713d
00000090: 2529 28be 9397 493d faff d23d c8a8 fe3c
000000a0: 4a5f a03d ad54 a53c 9a47 3c3e eae9 c73b
000000b0: 5392 2dbd a2ed 53bd f0ed 0d3e 03ac 59bd
000000c0: bde3 143e 5e60 a2bd 24b6 72bd 4e82 b53b
000000d0: 9908 453d 8b4d 02bd 842a 9abc 4666 063e
000000e0: c1b1 a33d 702b 833d 5996 c1bd 6617 42bc
000000f0: a8c9 8b3c 7c0d b13d 9682 c7bd 0514 00bd
00000100: bc78 cfbd 639a e13d d729 903d 206f 01bc
00000110: bb26 aa3d a3f1 a9bd c613 c3b9 e38a 863d
00000120: 6c85 ebbd a7c2 cabd f7f5 0b3d a690 b93d
00000130: 4290 cb3d 6171 babd 4e77 cfbd 3d69 d53b
00000140: b26d 8b3b 6cc8 8fbc 550b dfbd d15c 7cbd
00000150: ce36 7a3d d3b6 6a3d 9d06 8d3d 99da ecbc
00000160: e90e 01bd a663 abbc 0a7e b1bc 7286 97bd
00000170: 4573 16be 97ba 7a3c 8178 773d 6f02 713c
00000180: ed26 b9bd c758 b13b c059 ff3d d708 943d
00000190: bc75 dcbd d734 a0bd 9d06 0bbe 55bb b73d
000001a0: 88f6 06be c8cd d7bd 42bb 943d 9632 af3d
000001b0: 1291 aa3d 87ec fdbc 4b3c 193e 089c 323d
000001c0: a439 dcbc bcb3 72bc f4f0 043e d242 ecbd
000001d0: 3920 cdbd 4567 ba3b 64a1 d9bd 70bd 843d
000001e0: 0f4b e63c 73c6 54bd 12ea 893d a5e4 1bbd
000001f0: 7637 78bd ad05 e3bc 93c5 c33c 7a89 06bd
00000200: 5fe5 11be 189e 8ebc 4de3 e43d 168e f3bd
00000210: a5b2 0d3e 0235 31ba 0773 02be 58b9 0a3a
00000220: 09b3 4abe 738e 69bd f710 ecbd f670 15be
00000230: 2a86 ba3c caad a93c bb34 c7bd dd43 bb3c
00000240: 8a9e c43d c0b9 a73d 25aa 923d b204 c8bc
00000250: ffc6 4f3d 056d 8a3d d2c3 f2ba 6e19 a4bd
00000260: 02e1 bd3c 9b4e 593d 9af2 d3bd 2234 473d
00000270: c283 0bbd fcf7 aebd 5d74 17bd 4d93 083c
00000280: a0ea 593d c58d 363d a013 0b3d 742e cb3d
00000290: 8e90 4a3d e79b d0bc 3b54 c13c 7762 49bd
000002a0: bc3b af3d 705f 3c3d 753a b43c 7ea6 243d
000002b0: 6218 9f3d f1bb 6cbb cdc8 193d 27dd 943c
000002c0: c891 45be b08b f23b 5701 e7bd 775e 10bd
000002d0: 95f7 1abd abcd d1bd 63fb e03d 99f8 91bd
000002e0: d807 a0bd dbcf 833d d7c1 b43d 969f f8bb
000002f0: 8c52 c43a 0641 c03d 7e43 043d ea01 c9bd
00000300: 9bac 113c 2e90 0bbe b73c 8a3d 385b bebc
00000310: 6219 023d 3c4c 0bbd f2ca cfbd 3eb8 55bd
00000320: 5ae9 92bd 019a 0f3d 4899 b9bd 2a80 733d
00000330: c26b a93d 42ba 363c e620 353e 80e4 313b
00000340: c93d c43d cce6 7cbd 0846 b33d 9af4 103e
00000350: ac42 dabd 004a 2bbc 9497 7abd d916 923d
00000360: 6259 afbd b954 94bd 1ada a4bd e011 b63c
00000370: 6c53 c1bd e949 d6bd 5d19 d1bd 8ddd 0b3e
00000380: 3abb fe3c 2b2b f2ba 73c0 d73c fdd2 453d
00000390: 3fb1 2d3e 7980 c5bd d6c3 0cbe bbeb 7bbd
000003a0: 9ec6 9a3d ff7b ff3d e86e 07bb f388 bbbd
000003b0: 63cf ea3c 9145 d33c 4639 613c 24dd 7cbd
000003c0: 29be 15be 2852 10bd b730 07bd 7f31 6d3d
000003d0: e804 b43c 2251 3b3d 85ba d63d 2441 1dbd
000003e0: 430a 20bd 6145 883d f068 96bc 9c30 fe3d
000003f0: 8a28 d03d ce41 493d 5c92 0b3e b50e 9ebd

network.8.bias f4 [32]
0.12175049 0.08168191 0.1882778 0.21775964 0.1436283 -0.15869564 0.13938107 -0.028608408
0.15978782 0.017412515 0.18999614 0.26501518 0.106394835 -0.08238108 0.037146803 0.09229794
-0.060693886 0.11936286 0.016389512 0.08405681 0.02139313 0.117634095 0.14436467 0.19657475
-0.08221086 0.066436246 0.17475869 0.007974163 0.13143565 0.031100467 0.09198485 -0.05409347
00000000: 5258 f93d d848 a73d e5cb 403e 62fc 5e3e
00000010: 4c13 133e 1c81 22be e9b9 0e3e 2e5c eabc
00000020: 6b9f 233e b1a4 8e3c 598e 423e 12b0 873e
00000030: 89e5 d93d 69b7 a8bd 3f27 183d b406 bd3d
00000040: 279a 78bd 8474 f43d 4c43 863c fa25 ac3d
00000050: a540 af3c 25ea f03d 55d4 133e e44a 493e
00000060: 2b5e a8bd ba0f 883d f1f3 323e 10a6 023c
00000070: 1197 063e 68c6 fe3c 8e62 bc3d 1d91 5dbd

network.10.weight f4 [32]
0.9949602 0.8518193 0.9133297 0.9663168 0.89060163 0.9326297 0.92086166 0.8674585
0.85979474 0.95376194 0.9251711 0.957473 0.85915935 0.8426407 0.969226 0.92046654
0.87434155 0.850606 0.9729968 0.9532694 0.94985706 0.9306329 0.9403128 0.9057858
0.8679897 0.87191 0.91980445 0.9658675 0.9461779 0.9078233 0.8891143 0.955303
00000000: b6b5 7e3f d410 5a3f facf 693f 8a60 773f
00000010: 78fe 633f d2c0 6e3f 97bd 6b3f c311 5e3f
00000020: 821b 5c3f be29 743f 03d8 6c3f f31c 753f
00000030: def1 5b3f 4db7 573f 321f 783f b2a3 6b3f
00000040: d9d4 5f3f 51c1 593f 5116 793f 7709 743f
00000050: d529 733f f53d 6e3f 57b8 703f 94e1 673f
00000060: 9334 5e3f 7e35 5f3f 4e78 6b3f 1843 773f
00000070: b738 723f 1c67 683f ff9c 633f bd8e 743f

network.10.bias f4 [32]
-0.12880018 0.10984501 0.11717175 0.20982297 0.14343996 -0.17236388 0.196652 -0.1424625
-0.13547716 -0.11423246 -0.16624801 -0.1509996 -0.16482744 -0.14824131 -0.1757584 -0.14837348
0.1391123 0.16883515 0.15749337 0.18240145 -0.14619118 -0.210305 0.19306567 -0.18883456
0.19749114 -0.13615578 0.16055383 0.19994375 0.12482882 -0.1604124 0.14968781 0.25298798
00000000: 32e4 03be 6cf6 e03d bef7 ef3d d5db 563e
00000010: ede1 123e 2880 30be 245f 493e b1e1 11be
00000020: 86ba 0abe b5f2 e9bd eb3c 2abe a49f 1abe
00000030: 86c8 28be 92cc 17be 03fa 33be 38ef 17be
00000040: 7473 0e3e 1fe3 2c3e f145 213e 72c7 3a3e
00000050: 24b3 15be 325a 57be 02b3 453e d95d 41be
00000060: 1e3b 4a3e 6c6c 0bbe 3968 243e 0ebe 4c3e
00000070: 41a6 ff3d 2643 24be c347 193e a487 813e

network.10.running_mean f4 [32]
1.0564612 0.37473693 0.77047676 0.9087117 0.90836704 0.55399024 0.93323445 0.37225077
0.7924304 0.74062014 0.81971085 0.95130473 0.78056645 0.31821457 0.74152225 0.78484666
0.6384988 0.99771434 0.8282074 0.8890211 0.73848027 0.7361651 0.90178007 0.83601594
0.5803378 0.5476681 0.756938 1.0415292 0.74602073 0.7121249 0.91152847 0.71759725
00000000: 1f3a 873f 85dd bf3e f73d 453f 54a1 683f
00000010: be8a 683f 4ed2 0d3f 74e8 6e3f a797 be3e
00000020: b8dc 4a3f 4899 3d3f 92d8 513f b588 733f
00000030: 34d3 473f 05ed a23e 67d4 3d3f b6eb 483f
00000040: a874 233f 356a 7f3f 6605 543f e396 633f
00000050: 0b0d 3d3f 5175 3c3f 0fdb 663f 2405 563f
00000060: 0591 143f fa33 0c3f b0c6 413f d450 853f
00000070: 37fb 3e3f d14d 363f ee59 693f 74b4 373f

network.10.running_var f4 [32]
3.0392451 0.29524925 1.2338544 1.7074724 1.9402653 1.619895 1.2283133 0.42310992
1.981422 1.6999931 1.4329865 1.9309394 1.4806395 0.26020166 2.3100152 1.416151
0.7099436 2.1264887 1.7802393 1.8930633 1.5427287 1.4226371 1.4218975 1.2160604
1.3662311 1.3410586 1.417886 2.1681173 0.95481455 1.1174024 1.4198155 1.327517
00000000: fe82 4240 e92a 973e f1ee 9d3f 758e da3f
00000010: 9d5a f83f b858 cf3f 5f39 9d3f dda1 d83e
00000020: 3c9f fd3f 6099 d93f 1a6c b73f 0629 f73f
00000030: 9885 bd3f 2739 853e 4ad7 1340 7044 b53f
00000040: ddbe 353f 6418 0840 e2de e33f e64f f23f
00000050: 2278 c53f f918 b63f bd00 b63f dea7 9b3f
00000060: a9e0 ae3f cfa7 ab3f 4a7d b53f 6fc2 0a40
00000070: ba6e 743f 0b07 8f3f 84bc b53f 14ec a93f

network.12.weight f4 [1, 32]
-0.060865037 -0.011287601 0.034719963 0.03841366 0.05191276 -0.048473284 0.05085557 0.007730513
-0.03563818 -0.059571426 -0.027944604 -0.028920991 -0.028557524 -0.0071790856 -0.037311103 -0.05873232
0.052023966 0.033808395 0.07546951 0.024820149 -0.028615655 -0.036673564 0.048710726 -0.034643408
0.048941594 -0.020634478 0.075739145 0.047614094 0.058601934 -0.041200966 0.056476325 0.04616124
00000000: 9e4d 79bd a1ef 38bc 8536 0e3d a457 1d3d
00000010: 79a2 543d ec8b 46bd ee4d 503d 3e50 fd3b
00000020: 57f9 11bd 2b01 74bd 15ec e4bc b7eb ecbc
00000030: 78f1 e9bc 893e ebbb 87d3 18bd 4d91 70bd
00000040: 1517 553d ac7a 0a3d c28f 9a3d a053 cb3c
00000050: 616b eabc 0537 16bd e684 473d 3fe6 0dbd
00000060: fb76 483d a309 a9bc 201d 9b3d ff06 433d
00000070: 9508 703d 58c2 28bd b853 673d 9213 3d3d
